…
=====\n"," input_word_ids (InputLayer)  [(None, 100)]            0         \n","                                                                 \n"," tf_distil_bert_model (TFDis  TFBaseModelOutput(last_h  66362880 \n"," tilBertModel)               idden_state=(None, 100,             \n","                             768),                               \n","                              hidden_states=None, att            \n","                             entions=None)                       \n","                                                                 \n"," bidirectional (Bidirectiona  (None, 100, 492)         1499616   \n"," l)                                                              \n","                                                                 \n"," dropout_19 (Dropout)        (None, 100, 492)          0         \n","                                                                 \n"," bidirectional_1 (Bidirectio  (None, 100, 492)         1092240   \n"," nal)                                                            \n","                                                                 \n"," dropout_20 (Dropout)        (None, 100, 492)          0         \n","                                                                 \n"," bidirectional_2 (Bidirectio  (None, 292)              560640    \n"," nal)                                                            \n","                                                                 \n"," dropout_21 (Dropout)        (None, 292)               0         \n","                                                                 \n"," dense (Dense)               (None, 124)               36332     \n","                                                                 \n"," dense_1 (Dense)             (None, 2)                 250       \n","                                                                 \n","=================================================================\n","Total params: 69,551,958\n","Trainable params: 3,189,078\n","Non-trainable params: 66,362,880\n","_________________________________________________________________\n"]},{"output_type":"stream","name":"stderr","text":["/usr/local/lib/python3.7/dist-
…
